ml-service/models/transformer_rul_model_FD002.pth (torch, 325006 bytes, 39 tensors)

gcu.conv.weight f4 [64, 16, 3]
000000 7d aa 7e bf 5c ee 29 3e f4 93 a6 3e d7 a3 95 be
       -0.99478894 0.16594833 0.32534754 -0.29226562
000010 bf 4b 24 3d 70 f5 42 3d c3 d8 46 bf 22 6d 8d be
       0.0401113 0.04759735 -0.776745 -0.27622324
000020 81 43 7a bd 86 ad 9f 3e a2 27 27 be ed 32 a5 3e
       -0.061099533 0.31187075 -0.16323712 0.32265416
000030 3e e3 c5 be 8f 62 d5 3d 67 4f f9 3b 2c 3d e2 be
       -0.38649935 0.10419189 0.0076083425 -0.44187295
000040 61 48 5d 3e 05 66 b3 3d 6b f0 a5 bf 89 ef 4e be
       0.21609642 0.08759693 -1.2963995 -0.20208563
000050 bc 6b 97 bd 95 2d 53 3b 3a 98 86 be cf f1 e1 3e
       -0.073935956 0.0032223214 -0.26288015 0.44129798
000060 38 88 1f bf e3 0e 9c 3e f7 d2 1a 3d 8d 45 0c bb
       -0.6231723 0.30480108 0.037798848 -0.002140376
000070 a5 99 89 3e 9b 18 e5 bd 45 57 06 3e 0d 38 45 bf
       0.26875034 -0.11186334 0.13119228 -0.7703865
000080 b1 bb 62 be 71 45 e0 be 49 e7 8f 3c 79 17 81 bd
       -0.22141911 -0.4380298 0.01756634 -0.06303305
000090 01 86 1b 3e ea 05 9d be d9 92 c5 3e 7c a2 63 3e
       0.15187837 -0.30668575 0.38588598 0.22229952
0000a0 81 52 81 be 76 a9 80 3e e5 17 2c 3e 69 37 ec 3d
       -0.25258258 0.25129288 0.1680599 0.11534006
0000b0 24 38 78 be 12 7c 30 3e 2b 87 e6 bc e2 08 58 3e
       -0.24240166 0.17234829 -0.028140625 0.21097139
0000c0 6a 24 10 3e a3 ca 2f 3e 77 5d 13 3e d6 fe 40 3e
       0.14076391 0.17167144 0.14391123 0.18847212
0000d0 89 d2 f2 3d 49 93 85 3e 37 45 d5 3e a9 63 ce 3e
       0.11856563 0.26088932 0.4165437 0.4031041
0000e0 80 2b 88 3e 7e 3e 99 bd c9 e0 12 bc e9 90 39 be
       0.26595688 -0.074826226 -0.008964726 -0.18121685
0000f0 29 51 97 be 38 69 8a be 01 67 d3 bd 8f 92 ca 3d
       -0.29554108 -0.270334 -0.10322381 0.09891235
000100 44 2c d8 bc db ae 4f 3e d1 54 dc 3e b0 2e 03 3f
       -0.026388295 0.20281546 0.4303346 0.51243114
000110 de 1b 02 3f f2 8c 27 be 46 bb 3d be 61 c3 16 be
       0.5082377 -0.1636236 -0.1852847 -0.14722969
000120 6f 68 a3 bd 20 22 76 be e5 58 44 be 8c 5e 6c be
       -0.079789035 -0.24036455 -0.19174536 -0.23082942
000130 24 55 05 bd 66 bd 30 be 3c 67 df 3e 57 80 08 3f
       -0.0325519 -0.1725975 0.4363345 0.5332083
000140 2c cc a3 3e 3e a3 9e 3e 41 c7 b0 3e ba 6a b6 3d
       0.31991708 0.3098392 0.3452702 0.08907075
000150 bd d6 45 be b1 8c b8 be 35 a2 b5 be 0a d1 b6 be
       -0.19320197 -0.3604484 -0.35475317 -0.3570636
000160 83 aa 73 be ae 81 96 be ef 07 8e be 1b 79 ae bd
       -0.23795514 -0.29395813 -0.27740428 -0.08519193
000170 a5 de 56 be df 15 fc bb 18 1a 23 be aa 14 2c 3d
       -0.2098337 -0.007693037 -0.15927923 0.042011894
000180 94 08 e7 bc 06 78 f2 3d 52 0c 04 bf bf ac fe be
       -0.028202333 0.11839299 -0.515813 -0.4974117
000190 6d 58 81 be 36 59 43 bf 86 30 13 bd 7b 49 d7 be
       -0.25262776 -0.76308 -0.035934947 -0.4204825
0001a0 e5 95 34 bf 99 b8 0b 3f 22 00 44 bd 9e 21 e1 3e
       -0.7054122 0.5457855 -0.04785169 0.4397096
0001b0 68 7a a8 be a8 23 18 3f 93 02 11 bf 42 74 a5 bd
       -0.3290589 0.5942941 -0.5664455 -0.08078815
0001c0 ce 9a fb 3e 22 49 26 bf df 84 fb be f9 c3 4b 3e
       0.49141544 -0.6495534 -0.4912481 0.19898976
0001d0 78 48 3e bf cd 6d e8 3e c5 be 7f 3d 51 6d 1c 3e
       -0.7432933 0.4539627 0.06243779 0.15276076
0001e0 d4 c3 c8 be 1e 12 e6 3e f2 4b c0 be a1 82 e6 3d
       -0.39211905 0.44935697 -0.37557942 0.11255384
0001f0 10 c4 02 3f e1 3c 99 be 09 ca 6b 3e 12 25 95 be
       0.5108042 -0.2992926 0.23026289 -0.29129845
000200 59 e9 4d 3d da ff 91 be 23 36 d1 3c 41 9b 42 bf
       0.050271366 -0.28515512 0.02553851 -0.7601815
000210 7a d4 22 3f 72 ad 96 3d fc c0 d7 3e d8 9d 32 3f
       0.63605464 0.07357301 0.42139423 0.697721
000220 76 be a8 bd 96 44 d8 3e 1e ef 84 3d 76 0d 28 be
       -0.082394525 0.42239827 0.064909205 -0.16411385
000230 dd d2 a1 be 87 a1 0d bd 82 01 1a 3c 57 b6 8f 3d
       -0.31606188 -0.034577873 0.009399774 0.070172004
000240 bd ba 54 3c 87 eb 36 3d 33 bf 01 3e 32 49 e0 bc
       0.012983975 0.04465821 0.12670593 -0.027378652
000250 fb 24 74 be dc 7b cf bd 6f 36 a6 be e8 5e db be
       -0.23842232 -0.10131046 -0.32463405 -0.42845845
000260 37 aa a5 be 89 49 64 3e 06 86 12 3d a8 9f 18 3e
       -0.32356426 0.22293676 0.035772346 0.14904654
000270 c1 c9 4b 3e b9 d7 99 3e 9d 5f 99 3e ba 9a 65 bd
       0.19901182 0.30047396 0.2995576 -0.056055762
000280 f9 df 64 bb cb 37 b1 bd f5 53 16 bf 43 fd 1a bf
       -0.0034923537 -0.0865322 -0.5872186 -0.60542697
000290 e9 f5 0c bf cb 0d b1 3d f1 e9 06 bd 32 74 18 3e
       -0.5506273 0.08645209 -0.032937948 0.14888075
0002a0 41 9a c0 3c b7 70 06 3e 2f b0 ce bc a9 fa cb bc
       0.023511054 0.13128935 -0.025230495 -0.024899798
0002b0 49 74 e7 bd 48 8a 8c be 91 0e b4 be fb 58 f5 be
       -0.113014765 -0.2744925 -0.35167363 -0.4791945
0002c0 af 31 69 be 7a 7f 5c be 33 e6 a5 be 78 7b 3c be
       -0.22772859 -0.21533003 -0.3240219 -0.18406475
0002d0 42 b3 59 3e c5 1a bd 3e 8b f7 e2 3e ad 31 a4 3e
       0.21259788 0.36934486 0.44329485 0.3206915
0002e0 be 92 c8 3e 3e c0 92 3e e4 03 9e 3e c4 9d d1 bc
       0.39174455 0.28662294 0.30862343 -0.025587924
0002f0 92 dd 85 3e 20 dc 1b 3c 02 fc f8 3d 94 26 40 3e
       0.26145607 0.009512931 0.12157442 0.18764716
000300 f8 48 af bb 9f 50 dd 3e 2f 7e 45 3e 30 c4 ad be
       -0.0053492747 0.43225572 0.19286416 -0.33938742
000310 c4 fb d9 be fb 08 61 3d 82 02 94 be 26 89 18 bf
       -0.42574894 0.054940205 -0.28908163 -0.5958427
000320 c3 f9 98 bd 25 1a 33 3e ad cd 66 3e c6 02 ae 3e
       -0.07469513 0.17490442 0.22539397 0.3398649
000330 fc f1 32 3e 7a eb e3 3e 98 d6 e9 3d d7 e8 34 3e
       0.17475122 0.44515592 0.11417884 0.17666946
000340 e0 a3 ab 3d 83 00 a7 3e 00 dc 8d be 3d 76 32 bf
       0.08380866 0.32617578 -0.2770691 -0.6971167
000350 4b ab 93 be d2 4b 4a 3e 0f 0d 25 3b c4 a9 33 3d
       -0.28841624 0.19755486 0.0025184785 0.043863073
000360 95 a5 3a 3e fa 7e 3d bd ac a7 74 be a2 32 93 3e
       0.18227227 -0.046263672 -0.23892087 0.28749567
000370 37 84 1e 3e 5b 54 85 3e e2 60 95 bd c6 b9 d6 be
       0.15480123 0.2604092 -0.072938696 -0.4193861
000380 b3 77 90 3d 8e 5b 9a be 00 76 3d be a2 1e 4c be
       0.07054081 -0.30147976 -0.18502045 -0.1993356
000390 79 ca ce 3e 9c 99 8b 3e 75 f6 cb 3e a8 39 aa 3e
       0.4038885 0.27265632 0.3983647 0.33247113
0003a0 8a 8c 9d 3e e6 26 a7 3e 8f 83 fc 3e 92 0b a2 bd
       0.30771285 0.32646865 0.4931912 -0.07912363
0003b0 3a 12 8c 3e d5 95 09 3e 46 0e a3 be 17 2f d9 bc
       0.27357656 0.13436063 -0.31846827 -0.026511712
0003c0 b3 8a 82 3d 00 5c 48 be f4 20 c1 3d 64 6b c3 3d
       0.06374111 -0.19566345 0.094301134 0.095419675
0003d0 3b 74 14 bd 1b ef a5 be 9e 48 e3 be 7a de c2 be
       -0.03624366 -0.32408985 -0.4439134 -0.3806036
0003e0 b3 0d e8 be 79 88 c6 3e 9d 41 97 bd 33 da 3c 3e
       -0.45322952 0.38775995 -0.073855616 0.18442611
0003f0 e0 27 8b 3d fe 57 42 3e b7 a5 31 3e 6b ec 86 bd
       0.06794715 0.18978879 0.17348371 -0.06588062

gcu.conv.bias f4 [64]
000000 6b 08 83 bc 78 a9 64 be 06 b3 11 be c6 98 bf 3e
       -0.015995225 -0.22330272 -0.14228448 0.37421244
000010 26 8b 7c 3d e3 fa 86 3c 32 98 bc 3e 6b 4a 63 be
       0.06165614 0.016477054 0.36834866 -0.22196357
000020 93 df 95 3e 9b 95 7c 3e 39 55 36 be 1e 05 94 be
       0.29272136 0.24666445 -0.17805947 -0.28910154
000030 d5 ce 46 3d de 28 3c 3e 45 e4 60 be 78 f4 d5 be
       0.048537094 0.18374965 -0.21962078 -0.41788077
000040 bd 33 e5 3d 00 2e 94 3e 5d ba 9b be a6 6e 5e be
       0.11191509 0.28941345 -0.3041562 -0.21721897
000050 bd 6a b5 bd 94 01 43 3d 5a 2f da 3e a7 16 03 be
       -0.08858249 0.047608927 0.4261425 -0.1280161
000060 e9 e8 d3 3e d8 a3 4a 3e 59 d0 82 bd be d1 c5 3e
       0.41388634 0.19789064 -0.063873954 0.38636583
000070 48 6f ae 3e 32 1e bf 3d 49 38 d8 be c0 15 ab be
       0.34069276 0.09331931 -0.42230442 -0.3341503
000080 e0 03 7e 3d 07 c1 50 3e 1a 43 85 be 11 57 05 be
       0.062015414 0.20386134 -0.26027757 -0.13021494
000090 85 c9 cb 3d 93 8c a5 be ca 51 af 3e de 0c 09 bd
       0.09950546 -0.32333812 0.34242088 -0.033459537
0000a0 1d 6a d3 3c ec 3a 82 be dc 52 59 3e 93 7e 08 3e
       0.025807435 -0.2543558 0.21223015 0.13329534
0000b0 f1 35 ca 3d f4 94 a7 3e d9 9b 75 bd d0 79 36 3e
       0.0987357 0.3273083 -0.05996308 0.17819905
0000c0 c1 e5 03 be c2 ff d3 be 9e c4 e9 3e 01 c8 60 be
       -0.12880613 -0.41406065 0.4565782 -0.21951295
0000d0 63 8b 95 3e 86 3a cf 3e 46 8d 93 be c1 12 de 3e
       0.29207906 0.40474337 -0.2881872 0.43373683
0000e0 a5 eb 44 bd 86 2e a6 be d0 d6 4a 3e 34 13 48 be
       -0.04807629 -0.3245737 0.19808507 -0.19538575
0000f0 11 24 ec 3d 4f a0 91 3d d3 64 71 3e 82 16 ce 3e
       0.115303166 0.071106546 0.23573618 0.40251547

gcu.gate.weight f4 [64, 16, 3]
000000 bd 02 9f bf 24 57 60 bc 5f 11 8a 3e e6 98 91 be
       -1.2422711 -0.013692651 0.26966378 -0.28436965
000010 a7 d6 2f bd a5 0c 58 be 6f 3c 2c bf ac 54 ae be
       -0.042929318 -0.21098574 -0.67279714 -0.34048975
000020 c2 14 33 be 54 a2 06 be 4d 57 2c bf ef a2 6d 3e
       -0.17488387 -0.13147861 -0.6732071 0.23206685
000030 17 d6 7c bf 26 d7 43 3d 3e 99 2c bd 8c 18 26 bf
       -0.98764175 0.047812603 -0.04213833 -0.64881206
000040 10 ef b4 3d 02 2b 2a 3e c0 31 6e bf ba ee fb bd
       0.0883466 0.16617969 -0.9304466 -0.12301393
000050 6d 68 14 be d7 ff 90 be e1 c1 e1 be 37 be 4f 3e
       -0.1449296 -0.2832019 -0.4409323 0.20287405
000060 28 bc 9f bf dd 88 c3 bd 76 de 9e be 2b 8b 0f be
       -1.2479296 -0.09547589 -0.310291 -0.14017932
000070 d5 e1 65 3e 2d d6 ce bd 39 4a 7c 3e 41 b4 10 bf
       0.2244943 -0.100994445 0.24637689 -0.56525046
000080 d1 ee 50 3e e9 84 8b be 2e 23 b2 be 70 de 21 be
       0.20403601 -0.2724984 -0.34792465 -0.1580751
000090 ac 7a 68 3b 8b 5e 0f bf fd 5c 51 3e 06 4c 14 be
       0.0035473509 -0.56003636 0.20445628 -0.14482126
0000a0 ab 30 04 bf 4e c5 42 3e c2 80 9f be 26 22 92 bd
       -0.5163676 0.19020578 -0.31152922 -0.071354195
0000b0 4c 3c 41 bf c5 55 da be 18 c6 9f bd 96 32 b2 3d
       -0.7548263 -0.42643562 -0.07801455 0.08701055
0000c0 6f 32 8d bd ae d8 a7 3f e9 86 74 3e a6 50 8a 3e
       -0.06894385 1.3113 0.23879589 0.27014655
0000d0 cf 7e 02 40 8f 44 c2 3e eb 4a 93 3e 59 b7 9c 3f
       2.0389898 0.3794293 0.28768095 1.2243453
0000e0 7b da 93 3e af b2 18 3d 0d 0d 51 3d ad 27 02 be
       0.28877625 0.03727978 0.051037837 -0.12710448
0000f0 c0 6d 79 3d 69 16 33 3f 0e ba 13 3e 94 ea df bc
       0.06089568 0.6995607 0.14426443 -0.027333535
000100 f8 5d e4 3f 89 52 fa 3d 68 fb 40 3e d0 fa c4 3f
       1.7841177 0.122227736 0.18845904 1.5389042
000110 25 ed 05 3e c1 4b ae 3c d0 a1 ad 3d 90 01 90 be
       0.13078745 0.021276357 0.08478129 -0.28126192
000120 d3 fc 1d 3e fc b4 1b 3f 84 35 31 3e 89 5a b3 3e
       0.15428476 0.60823035 0.17305571 0.3503001
000130 d8 01 83 3f 9a 97 28 3e 49 e8 ad 3e 07 44 da 3e
       1.0234938 0.16464081 0.33966282 0.42630026
000140 84 21 69 3e b7 25 8d 3e c4 0c 89 3f d9 3c 5d 3e
       0.22766691 0.27567837 1.0707021 0.21605243
000150 47 22 a2 3d ea 64 2f 3e 32 63 b2 be 42 1e e4 bd
       0.07916694 0.1712834 -0.34841305 -0.11138584
000160 08 7c da 3d 63 e8 8d be 9d a3 4c 3f 24 1e c5 3e
       0.10668188 -0.2771636 0.79937154 0.38499558
000170 eb 04 9e 3e f8 ef 8a 3e 6f 76 bd 3e 45 52 cd 3e
       0.30863127 0.27136207 0.3700442 0.4010183
000180 7c 08 4e bf d2 64 63 bf 23 f5 00 bf 1c 2c 47 bf
       -0.80481696 -0.88825715 -0.5037405 -0.7780168
000190 28 a4 5c bf 36 ce aa be d0 9e 6e bf 0a 5c f7 be
       -0.8618798 -0.3336045 -0.9321108 -0.48312408
0001a0 c8 d7 11 be d9 8e 82 bf 17 6a 8e be d8 94 00 bf
       -0.1424247 -1.0199844 -0.27815315 -0.5022712
0001b0 ae 77 98 be 9c 7a 48 bf a0 2a cb 3c 3a c9 20 bf
       -0.29778808 -0.7831209 0.024800599 -0.6280705
0001c0 ab eb 86 bf e5 d4 08 3d 1a f0 2a bf c1 3f 55 bf
       -1.054067 0.033406157 -0.66772616 -0.83300406
0001d0 4a d9 a1 3d 13 8e 98 bf 36 0d 98 be 5e c3 1c bf
       0.07902773 -1.1918358 -0.2969758 -0.61235607
0001e0 4f 4e 8b be 79 98 22 bf ba f8 32 3e db c1 bd be
       -0.27208182 -0.63513905 0.17477694 -0.37061962
0001f0 65 34 17 bf ae 3e 4c 3e 7a 92 8f bf b6 a5 58 bf
       -0.5906432 0.19945785 -1.1216576 -0.84627855
000200 84 a3 39 bf 68 f2 28 bf ab c7 35 bf 8a 28 eb bd
       -0.7251513 -0.6599488 -0.71007794 -0.114823416
000210 e4 09 80 bf 33 5a 8c be 35 a0 f4 be db b2 97 bf
       -1.0003018 -0.27412567 -0.47778478 -1.1851457
000220 64 b0 86 be 9c b2 07 bf 86 7a 94 bf 85 52 0d bf
       -0.2630645 -0.5300691 -1.1599891 -0.5520404
000230 7b c0 14 be 68 59 4f bf 34 1a 46 bf cb 12 9b bd
       -0.1452655 -0.809958 -0.7738373 -0.07571944
000240 1c 8a da bd fe 2e 0d 3d 96 c7 87 3e b3 ea 1d be
       -0.106708735 0.034468643 0.2651946 -0.15421562
000250 39 02 03 3e fc 0e 08 3e 91 aa 80 bc aa 7f e7 3e
       0.12793817 0.13286966 -0.015706332 0.45214587
000260 70 2f 0f 3e 91 7c bd ba bf f4 fa be be 0f 80 3e
       0.1398294 -0.0014456679 -0.4901485 0.2501201
000270 98 e9 1b bd 5b c6 9e 3e 9f 41 79 be da 7e cd bd
       -0.03806457 0.31010708 -0.24341439 -0.10033961
000280 53 90 d2 3e 1b e7 8f 3d 45 8d 20 bd 1f d0 29 3f
       0.41125736 0.07026502 -0.039197225 0.6633319
000290 96 ce 22 3e b0 68 89 be 3a b5 a3 be 5d e8 ce 3e
       0.15899119 -0.26837683 -0.31974202 0.40411654
0002a0 a7 41 16 bd 10 5a 17 3f 5c 1e bb be d9 62 36 3d
       -0.036683705 0.591218 -0.365466 0.044527862
0002b0 3f 55 15 3f 64 af 88 be 62 b9 be 3f eb 27 16 3f
       0.583332 -0.26696312 1.4900324 0.5865466
0002c0 66 95 ae 3f bf 48 8d bd bc 69 29 3f 49 6c 40 3e
       1.3639343 -0.06898641 0.6617696 0.18791308
0002d0 84 80 50 be 34 1c c7 be d9 1a 4d 3e 6a 73 0e be
       -0.20361525 -0.38888705 0.20029773 -0.13911214
0002e0 ad e9 b9 be 2d 96 f9 3d 58 0a 44 3f a8 ee ae 3e
       -0.36311093 0.12186847 0.76578283 0.34166455
0002f0 8c b6 9a bb 68 f5 25 3f 31 2f f8 3e 59 d6 47 3d
       -0.0047214683 0.64827585 0.48473504 0.048788402
000300 93 76 cc be a8 c9 3f be a3 44 0c be 34 af 8d be
       -0.39934215 -0.1872927 -0.13698058 -0.27672732
000310 c3 22 e5 be 71 dd 8a be 75 ba c8 be 38 1d bf be
       -0.44753084 -0.2712207 -0.39204755 -0.3732698
000320 d3 de 08 bf 9f 9f 28 be b3 eb 39 be ba 41 a2 bd
       -0.53465 -0.1646714 -0.18156318 -0.079226926
000330 dd 06 47 be 0e b0 16 bc ec 88 7c bd 10 29 a5 be
       -0.19436212 -0.009197248 -0.061654016 -0.3225789
000340 67 60 d4 be 58 a2 4e be 2b df cb be 3e 93 03 bf
       -0.414798 -0.20179117 -0.398187 -0.5139655
000350 4a 6f f4 be b2 94 b6 bd 77 1f 16 be 0e 55 92 be
       -0.47741157 -0.0891508 -0.1466044 -0.28580517
000360 dc bd 50 be 57 96 f2 3d eb cb 32 be 7f 46 d8 bd
       -0.20384926 0.11845081 -0.17460601 -0.10560321
000370 21 57 ea be 86 96 f1 be ef 81 67 bf 61 ce 93 bf
       -0.457696 -0.47185153 -0.9043264 -1.1547357
000380 33 17 f4 be 92 49 ae be c3 bd c1 be af c5 de be
       -0.4767395 -0.34040505 -0.3784009 -0.43510196
000390 e3 64 44 be 07 da b6 be 09 ba 53 be 60 be 4d be
       -0.1917911 -0.35713217 -0.20676436 -0.20092154
0003a0 64 08 9d be 5d 9d 8a 3d f2 2e e8 be 9c bb 0f bf
       -0.30670464 0.06768296 -0.45348316 -0.56145644
0003b0 62 6b eb be bf 92 4d bf f5 ea 0a bf 7a cf ec be
       -0.45980364 -0.8030204 -0.54264766 -0.46252042
0003c0 d9 6a 8e be 01 88 0b 3e 1d 2c 03 3e 52 81 24 be
       -0.27815893 0.136261 0.12809797 -0.16064957
0003d0 6f 18 b3 3d d2 2e 73 3c 44 ce 80 3d 1e 16 14 3f
       0.08744895 0.014842706 0.06289342 0.5784625
0003e0 cc 4e 9c 3d 61 db 90 3c 48 98 3d be 14 98 21 be
       0.07632217 0.017682733 -0.18515122 -0.1578067
0003f0 6b d6 70 be ae d8 c7 3c 79 50 e4 bd 0c 62 8f 3c
       -0.23519294 0.024395313 -0.111481614 0.017502807

gcu.gate.bias f4 [64]
000000 10 22 8e be d8 d0 1b 3e 1b 2c 30 bf 44 16 8b 3e
       -0.27760363 0.15216386 -0.688173 0.27165425
000010 8f 3c dc be 38 4b c6 bd 92 e8 e3 3d dd dd 51 bd
       -0.43014953 -0.096823156 0.11128344 -0.051236976
000020 6f 1f 61 bb 9d 15 88 3d 95 0d 19 be c1 36 68 be
       -0.0034351011 0.066447474 -0.14946587 -0.22677137
000030 54 56 5c bd 51 d7 ad be 58 b0 dc be b6 44 5e be
       -0.053793266 -0.33953336 -0.4310329 -0.21705899
000040 df b1 4f bc b7 32 a4 3f 58 d6 5f bf d0 b3 f4 bd
       -0.012676685 1.2827977 -0.8743644 -0.11948359
000050 91 ee 3a 3d 10 08 83 bd 25 de 09 3e 7e 1f 92 be
       0.04563767 -0.06398022 0.13463648 -0.28539652
000060 b3 fc a7 be e6 28 8e bd 2d d8 5f 3b 42 a5 81 bd
       -0.32809982 -0.069413945 0.003415595 -0.063303486
000070 d7 81 e8 3d 54 b1 35 be cd 6f 9e 3c ee e6 50 3e
       0.1135289 -0.17743427 0.01934042 0.20400593
000080 77 7e 84 be 01 df dd be 51 2e 74 be 97 14 8c be
       -0.25877735 -0.433342 -0.23845793 -0.2735946
000090 8e 63 67 bc 43 50 22 bd c5 16 27 bd ac d5 23 be
       -0.014122857 -0.039627325 -0.0407932 -0.15999478
0000a0 27 c5 c9 bd 4f 4c 00 3e 14 b6 01 bc 0a 09 17 3f
       -0.09852057 0.1252911 -0.007916946 0.5899817
0000b0 a0 d1 80 be 1e 58 9b bd a1 ad 69 bf 75 84 16 bf
       -0.2515993 -0.075851664 -0.9128056 -0.58795863
0000c0 fb de c5 bc c9 74 08 bb fa 60 22 3e c5 90 84 be
       -0.024154177 -0.0020821563 0.15857306 -0.258917
0000d0 71 e0 cd 3c fd 59 aa 3e dc 76 d0 3d cc 5d 8a be
       0.025131436 0.3327178 0.101789206 -0.27024686
0000e0 8b 8f a2 be c9 1e fb be 46 e6 d4 3c 94 11 c5 3d
       -0.3175014 -0.49046925 0.02598871 0.096224934
0000f0 85 7b 00 bf 43 b7 d1 be c2 bd 87 3e 9f 97 ec bd
       -0.50188476 -0.4096013 0.2651196 -0.11552357

linear_gcu.weight f4 [64, 64]
000000 65 a9 7d be a5 36 fa 3d 56 7a 05 bf 29 be a0 3d
       -0.2477165 0.12217454 -0.52139795 0.0784877
000010 26 33 2d be 42 03 48 be 51 07 7c be 05 0b 5e 3e
       -0.16914043 -0.19532493 -0.24612166 0.21683891
000020 0e fa 97 be 39 c5 0f be f6 2c 3f 3e 82 13 28 be
       -0.29682964 -0.14040078 0.18669495 -0.16413692
000030 bb 0a 6e 3f 06 fe f6 bd e5 ea 9a bd 29 24 15 3d
       0.92985123 -0.1206017 -0.07564334 0.036411438
000040 9b 70 a3 bd ad 56 69 be 49 0b 26 3e 37 85 1f be
       -0.07980462 -0.2278697 0.16215242 -0.15578161
000050 3c b0 03 3f a1 25 4f bd ca 33 ad bd ec ff 6e 3f
       0.5144079 -0.050572995 -0.084571436 0.93359256
000060 dc 10 d3 3c 56 fe d6 bd 51 d4 8a be e3 89 0c 3d
       0.025764875 -0.104977295 -0.2711511 0.034311187
000070 11 c3 48 3c 75 5b 1a 3e 15 4a 2f 3d e2 73 f7 3d
       0.012253539 0.1507395 0.04279526 0.1208265
000080 e2 2a bf 3c 1a ec 9c be 0f 41 0a 3b 91 c0 ff be
       0.023335878 -0.3064888 0.0021095907 -0.49951604
000090 18 11 7b 3e a7 ff 38 3e 12 35 81 bd fe 88 8e be
       0.2451824 0.18066274 -0.063089505 -0.27838892
0000a0 9f 61 8d 3e c9 d6 96 3c d6 73 5e bf 71 7b 96 3e
       0.2761354 0.018412964 -0.868955 0.29391053
0000b0 ea f5 2f bf c6 35 92 3d ad 60 d8 bd b0 aa 33 bf
       -0.6873461 0.07139163 -0.105653144 -0.70182323
0000c0 08 be 6f 3d e1 48 88 3e 39 a4 55 3e 72 bd e1 3e
       0.058530837 0.26618102 0.20863427 0.44089848
0000d0 72 78 19 3e 63 c8 71 be 4d d8 90 be b5 31 15 3d
       0.14987352 -0.23611598 -0.28290024 0.036424357
0000e0 0c 6a 71 3e 28 b9 01 3e cb ad c5 3e c0 90 4c 3e
       0.2357561 0.12668288 0.38609156 0.19977093
0000f0 ec df 40 3f 00 73 21 bf 15 b0 dd 3d 0a 05 3c bd
       0.7534168 -0.630661 0.108246006 -0.045903243
000100 a3 61 17 bf e7 04 0c 3e e8 de 0d 3d ff e7 11 be
       -0.59133357 0.13673745 0.034636408 -0.14248656
000110 f4 74 09 be 5c b9 2b 3e 9f 0c 89 bd 66 29 2f 3d
       -0.1342352 0.16769928 -0.066918604 0.04276409
000120 52 7c ff 3d 85 3f b9 bd c6 f2 b6 bd 91 09 3a be
       0.12474884 -0.090453185 -0.08933024 -0.18167712
000130 f8 75 e7 3e b7 d4 5d bd 3f c1 87 3d 52 28 97 3e
       0.4520719 -0.05415794 0.06628656 0.2952295
000140 b1 90 5a be 36 f9 86 3d 0b 80 a4 bd 42 0c f8 3c
       -0.21344258 0.06590502 -0.08032235 0.030279282
000150 6a 66 52 3c d5 03 c8 bc aa 39 60 3e e9 bd 47 3f
       0.0128418 -0.02441589 0.21896997 0.78024155
000160 94 e5 f7 be 46 00 e6 3e 0e be 86 be 69 45 21 3c
       -0.48417342 0.44922084 -0.26316875 0.009843209
000170 5a d2 e0 3d a6 40 1a bf d4 a7 1c 3e 95 0b 48 3d
       0.109776214 -0.60254896 0.15298396 0.04883917
000180 07 59 e4 bb 41 1a 5c bd e6 33 8b 3e 6c 75 c4 be
       -0.0069686207 -0.053735975 0.27188033 -0.38370836
000190 4e e3 43 be bf 15 75 3e f3 48 f6 be a2 80 78 be
       -0.19129679 0.23934077 -0.4810253 -0.2426782
0001a0 91 c8 a2 be 59 91 fd 3c c0 3f 5a be 6d 81 85 3d
       -0.31793645 0.030953096 -0.21313381 0.06518827
0001b0 b6 91 62 bf ef b5 b3 be c3 00 84 3e f7 d8 78 3d
       -0.8850359 -0.35099742 0.2578183 0.06075379
0001c0 52 37 38 bd 01 3e 08 be 79 54 14 be 72 07 81 3d
       -0.044974633 -0.13304903 -0.14485349 0.06300248
0001d0 d7 50 8d be d6 69 11 bd 8c 0d 2a 3e 94 cf 32 3b
       -0.27600738 -0.035501324 0.1660673 0.002728437
0001e0 81 9e 8a bd dc 6f d5 3d 93 45 ce 3d 9c 7a c0 3d
       -0.067685135 0.10421726 0.10071864 0.09398386
0001f0 92 14 bf 3d 92 bc 8a be 6b fc a9 be d1 35 73 bd
       0.09330095 -0.27096993 -0.33200392 -0.059377495
000200 3a b8 db bd 60 3b 11 bd 07 39 0b 3e 1f 55 90 3c
       -0.10728498 -0.035457015 0.13595973 0.017618714
000210 d6 75 89 bd a9 91 ab be ed af 31 3c cf 83 ae 3e
       -0.067119285 -0.33509567 0.010845167 0.34084937
000220 ad 02 df bd 21 10 ce bd 4f ee 0a bf 5c 0a 62 3e
       -0.10889182 -0.1006167 -0.5426988 0.22074264
000230 1a f1 1f 3e ad 48 d8 bd 85 b2 4e 3e 7f 4d 27 bf
       0.15619317 -0.10560737 0.20185287 -0.65352625
000240 67 fc 19 bd 17 eb a3 bd 0e 10 0f bd 81 6a e2 bd
       -0.037594225 -0.08003824 -0.03492742 -0.1105547
000250 cd 7b ba 3d fe 3a 9c 3e 75 62 d7 bd ac 0f a4 be
       0.091056444 0.30513757 -0.10516826 -0.32043207
000260 b1 50 03 3f b7 bd 13 be 7b 1f 3e be a4 ea 4b be
       0.51295 -0.14427839 -0.18566696 -0.19913727
000270 a4 3c 33 bd bd 0a 9d 3d d9 b2 06 bd 6f db 50 3d
       -0.043759003 0.07668064 -0.032885406 0.05099052
000280 94 09 9b 3e 53 b2 ed bd a5 9b 04 be 7b 6c e9 bd
       0.30280745 -0.11606278 -0.12949999 -0.11397644
000290 84 7d dd 3d 00 b1 b7 be 1d 9e 34 bc 16 e1 10 be
       0.10814956 -0.35877228 -0.011024025 -0.14148363
0002a0 b9 13 ad 3c 37 20 3a 3e f1 18 62 3e 50 d1 3e 3e
       0.021127569 0.18176351 0.22079827 0.18634534
0002b0 05 91 26 3e 40 84 73 be df c4 4d bd b3 d4 06 bf
       0.16266258 -0.23780918 -0.05023658 -0.52668303
0002c0 b2 e2 02 be fd 48 cf 3d 81 0e 5f 3d 94 31 3e 3f
       -0.1278179 0.10121343 0.05445719 0.742944
0002d0 2a 4b fe 3d c6 cb a1 bd ab 20 0e bd 03 f9 69 be
       0.1241668 -0.07900195 -0.034699123 -0.22848897
0002e0 48 df f2 3e a6 1e 14 bd 62 5d 45 3f 5e d0 d0 3d
       0.47435975 -0.03616204 0.77095616 0.10195993
0002f0 83 c6 43 3e 53 4b 9f be c7 8f 50 3d 24 7a 14 be
       0.19118695 -0.31112155 0.050918367 -0.14499718
000300 f9 fa 1b 3e 45 a3 60 3c 74 4b d1 3e ba 5a e5 bd
       0.15232457 0.0137108015 0.4087788 -0.11198945
000310 7f 66 63 3e 99 dd 35 3d 9d 96 10 3e 08 f5 5a 3e
       0.22207068 0.044400785 0.14119954 0.21382535
000320 fb 41 c9 bd 28 00 04 3c 2e 92 9e be cf 1a 99 bd
       -0.09827038 0.008056678 -0.309709 -0.074758165
000330 75 9e a1 be ee 73 f2 bd ed a4 68 bd 15 15 87 be
       -0.31566206 -0.11838518 -0.05679791 -0.26383272
000340 36 98 c3 3d a2 7b 61 bd 2f 59 4d be 89 52 80 3d
       0.09550516 -0.055049546 -0.20053552 0.06265742
000350 ae 50 af be a7 8e f7 3e c1 ef 39 bd 3d 6f f5 be
       -0.3424124 0.48351023 -0.045394663 -0.4793643
000360 b2 3a 90 3d 65 20 76 3e b6 50 1c be 28 0e 21 3d
       0.07042445 0.24035795 -0.15265164 0.03932014
000370 d1 59 f8 3d 3d 9e 80 bd 2d 58 47 3d c9 be 1f bd
       0.12126506 -0.062801816 0.048668075 -0.039000306
000380 f7 32 08 3d a7 70 b1 3e 7f 74 f1 bc cf de 92 3e
       0.03325173 0.3465626 -0.029474495 0.28685614
000390 88 8e 63 3d 7e 4b 1e be fc 68 10 3e 4e 20 f8 3d
       0.05555585 -0.15458485 0.14102548 0.12115537
0003a0 3a d2 90 3e 95 2c ad 3d 59 2b e2 3e 60 67 20 3d
       0.2828539 0.08455769 0.44173697 0.039161086
0003b0 1c 75 d6 3e f5 43 20 be 52 57 4f bb c3 73 ab 3e
       0.41886222 -0.15650924 -0.003163774 0.33486757
0003c0 0d fe a4 bc 8b 41 b0 bc 91 a4 70 bd 26 f1 3f 3d
       -0.020140672 -0.021515628 -0.058750693 0.046860836
0003d0 0b 72 29 bd aa af 01 3e ab 54 f5 bc 58 24 38 3d
       -0.041368525 0.12664667 -0.0299476 0.044956535
0003e0 b6 a2 19 bf eb 2b a1 bd f7 79 c7 3e 64 06 d4 3c
       -0.600139 -0.07869705 0.3896024 0.025881954
0003f0 91 08 71 be 58 2a c6 3e e9 df 09 3d 3d 61 9f 3d
       -0.23538424 0.3870418 0.033660803 0.077822186

linear_gcu.bias f4 [64]
000000 be 78 8a bd 0a 19 db bd 16 a5 bc bd f8 87 e2 3d
       -0.06761311 -0.10698135 -0.09211175 0.1106109
000010 d2 78 14 3e d1 34 be bc 9e 3f c8 3d fc 3f 20 be
       0.14499214 -0.023218544 0.09777759 -0.15649408
000020 8a a1 a3 3e 6b c7 2f be 89 8d 8b be 42 f7 40 be
       0.31959182 -0.17165916 -0.2725642 -0.18844321
000030 db cc 5e 3d 47 3a 44 be 2a f7 35 bd c9 7a 1d 3e
       0.054394584 -0.19162856 -0.044425167 0.1537887
000040 41 cf 0f be 96 8b 1b 3d ea 35 e9 bd d6 e0 fd 3c
       -0.14043905 0.037974916 -0.113872364 0.030991
000050 e5 07 eb be 53 49 e8 bd 5b 26 f7 bd 0f 45 ea bd
       -0.4590446 -0.113421105 -0.120678626 -0.11438953
000060 49 11 8d be e9 27 ca be 69 29 02 bd 3b 0f 46 be
       -0.2755225 -0.39483574 -0.031777773 -0.19341747
000070 bf da d4 3d e6 d9 1e 3c f0 ac 8d bd f0 71 b4 be
       0.10393285 0.009695506 -0.06917751 -0.35243177
000080 cd 5a 94 be 01 68 07 be 1e 1a ba bd cf 42 a2 bc
       -0.28975525 -0.13223268 -0.09087013 -0.019807247
000090 9c 63 d1 be a2 43 15 3c ec 70 46 be 84 7b ad be
       -0.40896308 0.009110363 -0.19379014 -0.33883297
0000a0 ce 32 57 3d d3 e2 98 3e 35 68 c3 3d 5f 43 54 bd
       0.052538686 0.29860553 0.0954136 -0.051822063
0000b0 9b 8b 80 3e 45 e8 06 bf 9a 3d e0 be be e5 87 3e
       0.2510651 -0.52698165 -0.43796998 0.26542467
0000c0 ec 5b c4 be f9 73 58 bf 15 6d dd be 8d aa 63 3e
       -0.3835138 -0.8455196 -0.43247285 0.22233029
0000d0 f2 c0 fb be 30 4a b7 bf 16 73 c0 3e 3b 87 c8 bd
       -0.49170643 -1.4319515 0.37587804 -0.09791418
0000e0 93 52 79 3e 85 b4 97 bb 6c d3 35 3e 32 df 76 bf
       0.24347906 -0.004629674 0.17756432 -0.9643432
0000f0 d8 3c eb be be 2a 1a bd 9a 6c e4 be 1c 79 75 bd
       -0.45944858 -0.03763842 -0.44614106 -0.059929952

encoder_layers.0.mha.wq.weight f4 [64, 64]
000000 5e 1f 1a 3e 2c 3b e3 bd 02 26 5e 3d d5 52 ae bd
       0.15051028 -0.110952705 0.054235466 -0.08511893
000010 6a f7 00 3e 43 aa 83 be 16 03 c9 3c 68 c4 69 be
       0.12594381 -0.25715837 0.024537604 -0.2282883
000020 01 80 9d 3e a6 32 b7 3b 97 10 01 bc 95 e9 05 3d
       0.30761722 0.0055907546 -0.0078774905 0.032693464
000030 18 7b 96 3d 49 bb 12 be 5f 32 04 be 36 69 9c 3b
       0.07347697 -0.14329256 -0.1290984 0.0047732843
000040 85 eb 0b 3d 70 27 0a be 0f 08 a0 bc 01 ba 70 bd
       0.034160156 -0.13491607 -0.019535093 -0.058771137
000050 37 72 09 3e c6 af b5 3c 29 4a 27 bd 98 b4 84 bd
       0.13422476 0.022178542 -0.04084221 -0.06479758
000060 0c ae 1f bd d2 f9 9a bc f4 3c 34 be 40 ad 58 3e
       -0.038984343 -0.018917952 -0.17601377 0.2115984
000070 8b 76 a5 3c 9a d6 98 bd 32 5f 57 be ea d9 d6 bd
       0.020198127 -0.07462807 -0.21032408 -0.104907826
000080 22 d8 a0 bc 85 13 a8 bd ef b4 da 3d cb 83 83 3d
       -0.01963431 -0.08206848 0.106790416 0.06421622
000090 f4 77 7f 3d 04 57 ad bd d9 1b e9 bb fe 5e bd bd
       0.062370256 -0.084638625 -0.0071139154 -0.09246634
0000a0 87 23 5f be 7e 9f 96 3d 86 c4 cf bc 44 b9 3b 3d
       -0.21790896 0.073546395 -0.025362264 0.04583098
0000b0 cc 40 99 3d 3a 2e 5b 3e 8b 6d e5 bd fd a5 82 be
       0.07483062 0.21404353 -0.11202534 -0.25517264
0000c0 cb a7 93 38 22 15 1a 3d 49 01 b5 bd 9b 3e 5c be
       7.04076e-05 0.03761781 -0.08838136 -0.21508257
0000d0 e1 27 a8 bd e4 13 74 bd 7e 51 60 3e 05 05 c0 3d
       -0.08210731 -0.05958928 0.21906087 0.093759574
0000e0 4f 28 87 bc cd a1 7e be 18 93 35 3e e5 82 23 be
       -0.016498713 -0.2486641 0.17731893 -0.15967901
0000f0 1d 67 eb bc c7 5f d6 bd e5 0b bb 3d 44 42 ec 3d
       -0.028735692 -0.10467487 0.09133128 0.11536077
000100 97 ef e5 bd 27 b8 89 bd 57 29 2b 3e c0 81 06 3b
       -0.11227339 -0.067245774 0.16714989 0.0020524114
000110 1a 5b 25 3e 19 c6 2a be 78 b3 7c 3e 89 f7 73 bd
       0.16148034 -0.16677131 0.24677837 -0.05956224
000120 ef 35 32 3e 10 5e 84 3e 3e d3 2a 3e bd c5 8b 3e
       0.17403387 0.25853014 0.16682145 0.272993
000130 d3 c5 9d be ae 9c 0a 3e fa 41 10 3e 6d 2f a5 bb
       -0.3081499 0.13536331 0.14087668 -0.005041054
000140 cb 21 e3 3e da 50 d5 3d 69 7e 8c be 90 8b 97 3e
       0.4436172 0.10415812 -0.27440193 0.29598665
000150 ac 8a 8c be ef 96 83 3e 95 7f 48 be 53 e8 ba 3e
       -0.27449548 0.2570109 -0.19579919 0.36505374
000160 35 28 a3 be b2 de a6 bd b8 27 0f 3c c1 81 60 3d
       -0.31866613 -0.081479445 0.008737497 0.054811243
000170 39 73 79 be e2 82 f0 bb 03 b1 19 be 12 04 66 3e
       -0.2436036 -0.007339821 -0.15008931 0.2246249
000180 ac 3c 7a be 9e 83 28 bd 0e 26 0e bd 26 0e 7a be
       -0.24437207 -0.041141145 -0.03470426 -0.2441946
000190 9e b9 2a be 22 5c b8 3e 69 14 73 bd 75 2a c4 3c
       -0.1667237 0.36007792 -0.059345637 0.023946026
0001a0 22 e2 34 3b 5c e7 58 be ba b1 c4 3c 5a 23 26 3e
       0.0027600606 -0.21182007 0.024010528 0.16224423
0001b0 28 b6 09 be f2 18 c3 bc 96 12 15 bf fe d8 5b 3e
       -0.13448393 -0.023815606 -0.58231485 0.21469495
0001c0 dc b6 16 bf 23 c4 b8 be 60 c6 b3 3b 68 01 90 3e
       -0.5887277 -0.3608714 0.0054862946 0.28126073
0001d0 53 c6 86 be 1c 99 3a be 50 4c 14 3c 51 33 32 be
       -0.26323184 -0.18222469 0.009051397 -0.17402388
0001e0 9e b6 8d 3e 0c 73 ee 3e 04 4a 4f 3d ff 94 a0 be
       0.27678388 0.4657215 0.050607696 -0.31363675
0001f0 05 38 8e be 20 7f 4d bd d6 38 c5 be d0 04 78 3d
       -0.27777115 -0.050170064 -0.38519925 0.060551465
000200 f8 e8 8d 3b b4 86 93 3d c9 a7 20 3e 20 03 97 bd
       0.0043307506 0.07203427 0.15689005 -0.07373643
000210 e6 94 5f 3d ac c0 47 3e ca 24 2b 3d c3 8b 30 be
       0.05458536 0.19507092 0.04178313 -0.17240815
000220 69 bf 99 3e b6 1b 42 be d4 01 04 be 99 59 93 be
       0.30028847 -0.18955883 -0.12891322 -0.28779295
000230 fd 35 8d 3e c3 f1 b9 bd 7f c8 39 bc 8d 4e a9 3e
       0.27580252 -0.090793155 -0.011339306 0.33067742
000240 2d 8d 40 be a2 46 b4 3d 87 46 8b be 27 fb 14 3d
       -0.18803854 0.08802535 -0.27202246 0.03637233
000250 b2 65 86 3d 3d a1 ca bd 21 90 ae bc d6 48 31 bd
       0.065623656 -0.09894035 -0.02130896 -0.043282352
000260 e5 31 01 3e bd a3 de bd 9f 5f 62 3e 3a a5 88 be
       0.1261669 -0.10871074 0.22106789 -0.26688558
000270 d6 f0 a0 3e 4d cf 8d be 59 45 00 bd 78 55 1f 3e
       0.31433743 -0.2769722 -0.031316135 0.15559947
000280 b6 16 af 3c d7 8f c9 bd fa e4 bc 3d 59 1c 32 3e
       0.021373134 -0.098418884 0.09223361 0.17393626
000290 2d 71 67 3e 91 be 2d 3e ba e4 e6 bc 6c 70 5b 3c
       0.22601767 0.16967227 -0.028185237 0.013393503
0002a0 73 38 ed 3d 5b d4 64 be 47 e2 2d 3e 78 f6 ec 3d
       0.115830325 -0.22346632 0.16980849 0.11570448
0002b0 41 ee 35 3e a0 0b 57 bd 9b 90 08 3e 36 29 d0 3e
       0.17766668 -0.05250132 0.13336413 0.4065644
0002c0 70 f9 37 be 44 60 99 be 40 f0 c2 3d f3 3e c4 3e
       -0.17966247 -0.29956257 0.0951848 0.38329276
0002d0 8e 36 94 3c 69 49 62 be 14 42 49 be 3f 72 23 be
       0.01809242 -0.22098316 -0.19654113 -0.1596155
0002e0 e3 c8 66 be 36 ce 58 3d 66 a1 8d be 9c 0c 80 3c
       -0.2253757 0.052931033 -0.276622 0.015631013
0002f0 60 41 10 3e 6a 4a 82 bb c0 33 4c 3e dc 9f d9 bd
       0.14087439 -0.003976156 0.19941616 -0.10626194
000300 ec 97 35 be ad c8 aa 3b 85 94 a0 3c d7 92 b5 bd
       -0.17733735 0.0052119107 0.01960207 -0.08865898
000310 8f 37 6b be d3 2f 02 bd 32 a3 c1 bb 2a d8 b6 3d
       -0.22970413 -0.03178389 -0.005909347 0.08927949
000320 ec 40 4c 3e 32 23 66 be 13 1f b6 3e 5a 5c 52 be
       0.1994664 -0.22474363 0.35570583 -0.20543042
000330 6f a5 77 3e cb b6 1b 3e 22 7b 4f bd 4a 52 0f 3d
       0.24184202 0.15206449 -0.050654538 0.034990586
000340 57 3a c7 3d 11 3f ba bd 83 de 27 3d db 03 20 be
       0.09727924 -0.0909406 0.040983688 -0.1562647
000350 53 66 0d bd ec 3f 88 3d 88 82 5c bd 83 c4 75 3d
       -0.034521412 0.06652817 -0.05383542 0.06000186
000360 64 30 b8 3e 10 19 45 3e b2 92 fa 3e 6a 7d a4 3d
       0.3597442 0.19247842 0.48940045 0.08031733
000370 01 b9 3d 3d 4b 63 34 3c 84 53 0d be 44 32 29 3e
       0.04631901 0.011010001 -0.1380139 0.16523081
000380 78 57 a0 3e 03 20 93 be 34 9f c8 3d 5b 32 b7 3d
       0.31316733 -0.2873536 0.097959906 0.089451514
000390 bd 83 c0 3d 1d 25 89 bd 8d b6 49 be 64 f2 a9 3e
       0.09400127 -0.06696532 -0.19698544 0.33192742
0003a0 c0 72 05 3e 76 e3 57 3d 9e df 71 3d 47 b9 08 3e
       0.13032055 0.052707158 0.05905115 0.13351928
0003b0 4b 56 b7 3e 20 d7 83 bd f8 74 81 bd d1 85 16 be
       0.35808024 -0.06437516 -0.06321138 -0.14699484
0003c0 bf 84 fb 3d 2e c3 77 3e 29 44 8a 3e 86 b7 ef be
       0.12281179 0.24195549 0.27005127 -0.46819705
0003d0 6f d6 a2 be 5f c2 b6 bb 94 b1 e6 be 18 77 09 3e
       -0.31804225 -0.00557737 -0.45057356 0.13424337
0003e0 3e 6e 27 3e 61 76 f9 be 57 89 0e be cb 56 30 3e
       0.16350648 -0.48723128 -0.13919578 0.17220609
0003f0 6c e1 e9 bd 86 db d0 bd 71 1c e5 be 57 f3 01 3f
       -0.11419949 -0.10198121 -0.44748262 0.5076193

encoder_layers.0.mha.wq.bias f4 [64]
000000 4e 6b 8e 3d 67 59 d4 be 85 74 95 be cb 3d 9f 3d
       0.069540605 -0.4147446 -0.2919046 0.07775458
000010 ca ef da be 2c 56 29 be 0a 3b 9f 3d f2 5c 11 3f
       -0.4276107 -0.16536778 0.07774933 0.5678245
000020 d8 3b fa be 8f de 47 3e ba 43 81 3e 9a 85 ab bb
       -0.48873782 0.19518493 0.25246984 -0.0052344324
000030 ce d6 1e be c9 b3 8e be 96 b3 50 be 5d 48 13 bd
       -0.15511629 -0.2787154 -0.20381007 -0.035957683
000040 dc 22 6f 3e 3c db 3a be 1a 09 e5 be e2 fd 8a be
       0.23353142 -0.18247694 -0.44733506 -0.27146822
000050 b4 8e ca be 1a 7d 6c 3e e3 18 22 3f c8 76 dc be
       -0.39562 0.23094597 0.63319224 -0.43059373
000060 65 2d 26 be 98 97 e8 3e 63 07 43 3e 9a b6 ca 3e
       -0.16228254 0.45428157 0.19045787 0.3959244
000070 f8 3a a3 be 4f fa b0 3e bb e9 28 be b3 41 19 bd
       -0.31880927 0.3456597 -0.16495411 -0.03741617
000080 92 4e fd bc 09 d9 95 bd 59 03 58 3d aa e6 a4 bd
       -0.030921254 -0.07316787 0.052737568 -0.08051808
000090 3e d6 65 3e dc 02 47 3d bb f1 aa bd 49 04 88 3c
       0.22445008 0.04858671 -0.08346888 0.016603606
0000a0 4b a7 3d be 44 23 8f bd cb f6 dc bc f7 92 b1 bc
       -0.18520848 -0.06989148 -0.026973149 -0.021676524
0000b0 cf 43 ea bd aa 95 cd 3d 2a 09 93 3e fe 69 20 bd
       -0.11438715 0.10038312 0.2871793 -0.039163582
0000c0 0c db a7 be 0e 78 2c 3d 4f d9 03 3e ce b3 03 bf
       -0.32784307 0.04210668 0.12875865 -0.51446235
0000d0 00 f2 2c 3e 1a 7c 13 3e 43 7f 03 be d4 e0 a4 be
       0.1688919 0.1440281 -0.12841515 -0.3220278
0000e0 a9 e6 38 be a0 43 00 be 23 19 fe bd d1 c5 94 3e
       -0.1805674 -0.12525797 -0.12407138 0.29057172
0000f0 d5 6c 82 3d 92 cd b5 be 4d 61 7b be 01 c5 3f 3e
       0.06368414 -0.355084 -0.24548836 0.18727495

encoder_layers.0.mha.wk.weight f4 [64, 64]
000000 ca cb d6 bc 9e 6f 88 bd b1 01 63 3d 0a 41 06 3d
       -0.026220221 -0.06661914 0.055421535 0.03277687
000010 62 29 e9 3d 56 77 86 3e 18 08 1b bd 2e a1 20 3e
       0.11384846 0.2626292 -0.037849516 0.15686485
000020 8b 72 79 bd ac d8 f4 3d 46 32 69 3d 33 43 09 be
       -0.060900252 0.119553894 0.05693271 -0.1340454
000030 44 c9 9b bc b0 80 19 bd da cd 25 3d ce 72 1a 3b
       -0.01901687 -0.03747624 0.04047952 0.0023566964
000040 19 b6 2a bd b3 4e 99 be bf 00 02 3e 3b 5e 42 be
       -0.041677568 -0.29942855 0.12695597 -0.18981259
000050 23 94 1c 3d 48 15 12 3e 33 79 ed bc 6d 66 59 be
       0.03822721 0.1426593 -0.028988456 -0.21230479
000060 54 73 12 3e 9d b8 ca bc 16 15 63 3c 62 ca 57 be
       0.14301807 -0.024746234 0.013860008 -0.21073297
000070 f9 3b 73 be c1 9d f3 3d 0c c6 ad 3d 96 c9 d3 bd
       -0.23753347 0.118953235 0.0848504 -0.10341184
000080 25 fc 59 3e 75 f0 87 3c 83 87 c9 bd 5f 83 ea bd
       0.21287592 0.016594151 -0.098403 -0.11450838
000090 c5 83 83 be e6 d9 d6 3d 10 0b f4 3e 69 76 8f bd
       -0.2568647 0.104907796 0.4766469 -0.07005007
0000a0 c5 ca 9f 3d 87 d6 10 3e f1 2f a2 bd 36 2c 10 bd
       0.07802347 0.14144336 -0.079193 -0.035198413
0000b0 44 4e 80 bd 97 92 67 3e ac 0f 70 3d 73 12 81 3e
       -0.06264928 0.22614513 0.058608696 0.25209388
0000c0 89 5f 91 3e e5 ce 9c 3e cc af 4c bd 29 91 37 3e
       0.283932 0.30626598 -0.04997234 0.17926468
0000d0 1e 24 66 3e cc 2b 3d 3e 44 47 21 bd d3 5d 5b bd
       0.22474715 0.18473738 -0.039374605 -0.053556275
0000e0 2a 0e 96 bc 15 49 22 3e a4 8e 3d be 6c 6f 97 3e
       -0.0183173 0.15848191 -0.18511444 0.29577196
0000f0 c9 2a ce 3d 28 22 91 3e 9c a9 48 3e e9 d2 2f 3e
       0.10066754 0.28346372 0.19595951 0.171703
000100 77 60 db 3b 95 76 4c 3d 15 ee c8 bd 26 e6 e4 3d
       0.006694849 0.049917776 -0.098110355 0.1117671
000110 16 74 3c be 43 de 40 3b 3a 83 26 bd a7 54 08 bc
       -0.18403658 0.0029429353 -0.04065249 -0.008320964
000120 b7 ec ca 3b 47 64 37 be 11 09 91 be fe 0a e1 3c
       0.0061927694 -0.17909347 -0.2832723 0.027471062
000130 3d 90 44 3e cb e1 b0 bd 00 51 65 3d 25 ed 78 3d
       0.19195648 -0.086368166 0.05598545 0.060773034
000140 7e 03 6f 3e e7 e6 19 bd 68 03 b7 3e dd 0d 38 3f
       0.23341176 -0.03757372 0.35744786 0.71896154
000150 23 5b f0 3d 6e 73 7b 3d 2a be 74 bc e1 cd 46 3e
       0.11736133 0.06138938 -0.014937917 0.19414474
000160 08 dd f3 be 8b f7 8a bd c2 26 33 be d1 f1 b2 3d
       -0.4762957 -0.06785496 -0.17495254 0.08737529
000170 18 d0 82 3e b6 fb b0 3e ad ff 65 be 94 dc 1a 3e
       0.25549388 0.3456704 -0.22460814 0.15123206
000180 3e 8b f1 be 46 b5 18 bc 1b fc 1e 3e 71 26 8a bd
       -0.47176546 -0.009320563 0.15525858 -0.06745613
000190 9b 60 35 3d 11 99 0e 3d 7c d2 db be a3 8d d7 3e
       0.044281583 0.034813944 -0.42934024 0.42100248
0001a0 7d df 84 bb 74 53 3a be 9b 34 c7 3e 8b 31 9d 3d
       -0.004054962 -0.18195897 0.38907322 0.07675465
0001b0 75 66 d1 3e cc 44 19 bf da 59 21 3d cb da 6f 3e
       0.4089848 -0.598706 0.03939233 0.23423307
0001c0 65 33 3a bf 7d 35 bc be 6d 77 60 be ee b8 cb be
       -0.7273467 -0.36759558 -0.21920557 -0.39789528
0001d0 bc 87 ce be ea f4 cf 3b 18 d4 13 3f 9b 29 c2 3e
       -0.40337932 0.0063463347 0.57745504 0.37922367
0001e0 e5 ff c3 3e 0e d5 8f bc 78 0f c5 3e 56 75 ca be
       0.3828117 -0.017557647 0.38488364 -0.39542645
0001f0 5d 96 2b bf c4 89 5f 3e 3b 33 36 bf 91 61 c7 3e
       -0.6702631 0.21829897 -0.7117192 0.38941625
000200 77 46 f2 bc c3 64 d5 bd 48 1f 5d be 98 c7 dd bc
       -0.029574616 -0.104196094 -0.21593964 -0.027072713
000210 37 fe 91 3d df 85 15 bd 71 e2 12 3e df 4b 53 3d
       0.07128566 -0.036504623 0.14344193 0.05158603
000220 c4 bc ae 3d 46 e5 06 be 4c eb d2 3c c5 79 a8 3c
       0.08532098 -0.13173398 0.025746964 0.020565877
000230 93 3f 5a 3d 51 e4 20 be ef e3 af 3d 94 94 bb 3e
       0.053283285 -0.15712096 0.08588397 0.36636794
000240 48 71 4e be fe 5a 84 3e 1b c2 8b be fa c9 0e 3f
       -0.20160401 0.25850672 -0.27296528 0.5577694
000250 5c 24 9b 3b 04 a5 f2 3d 9c 97 0c be 4c a5 93 3e
       0.004734559 0.118478805 -0.1372971 0.2883705
000260 95 21 47 be 0d 31 ec bb d7 59 b9 be 20 5c 75 3e
       -0.19446404 -0.0072079957 -0.36201355 0.23960924
000270 a9 fa c8 be 3f 1c 58 3e a5 3a 32 3e fa 92 9b 3e
       -0.3925374 0.21104525 0.17405184 0.30385572
000280 01 9c 52 bf ed 2d 5a 3e 95 62 d9 3e 64 7b e1 bd
       -0.82269293 0.21306582 0.42458025 -0.11009863
000290 72 c3 86 be 05 5c ed bc e9 a5 9f be 7b 25 86 be
       -0.26320988 -0.028974542 -0.31181267 -0.2620047
0002a0 5b db 02 3f 04 88 30 be f4 15 00 3f 5b bd 4e 3d
       0.5111596 -0.17239386 0.500335 0.050473552
0002b0 34 ff b1 bc 00 ab ad 3c 6b 5e 0f be e1 33 a0 be
       -0.021728136 0.021199703 -0.14000861 -0.3128958
0002c0 7a aa a4 be 7c 1e de bc 38 cc 01 bf ab 1b d4 be
       -0.32161313 -0.027114145 -0.5070224 -0.4142736
0002d0 d4 3a cc be 11 0a bc bd 7b bd 00 bf c6 39 2f be
       -0.39888632 -0.091816075 -0.50289124 -0.17111883
0002e0 2f b4 81 3e 66 a9 43 be ea 50 b7 3e 7c e7 2f be
       0.25332782 -0.19107589 0.3580392 -0.17178148
0002f0 cc bd bb bd 7f 35 c7 bc 6b 8c 61 bc 58 da 0c bf
       -0.0916706 -0.024317501 -0.013766388 -0.55020666
000300 65 f3 73 bd f7 1d 03 bd 3c 83 26 3d 49 3d dc 3b
       -0.05955829 -0.032011 0.0406525 0.006721173
000310 01 6c 17 3e 3c e7 10 3e 10 35 c8 3c 67 ed 13 bd
       0.14787294 0.14150709 0.024439365 -0.036115076
000320 a6 57 58 3e 96 03 83 be a7 8a dc 3a 24 00 36 bd
       0.21127185 -0.25588673 0.001682599 -0.044433728
000330 4d c2 43 3d 5c 1a 7a bd fe c1 c3 bd 09 dd 45 be
       0.04779272 -0.061060295 -0.095584854 -0.193226
000340 c8 53 26 bd b8 67 74 3d 8a 24 4e bd 53 5d 17 bf
       -0.040607244 0.059669226 -0.050327815 -0.59126776
000350 ab 29 1f bd c1 30 19 be 3d 65 f1 3d fc b5 c7 bc
       -0.038858097 -0.14960004 0.11786888 -0.02437877
000360 9d 86 54 bd d0 c9 4c be ec 3e 30 3f 2e 80 99 be
       -0.05188619 -0.1999886 0.6884601 -0.29980606
000370 d2 a5 a5 3d 1a 01 a0 bc cd 47 6c 3e 3b b9 91 be
       0.08088268 -0.019531775 0.23074265 -0.28461632
000380 d9 80 19 3f e8 4f 0d bd c0 b3 60 3d 63 21 3f 3e
       0.5996223 -0.034500033 0.054858923 0.1866508
000390 85 a3 9f 3e dd 4c 98 3e 64 01 f7 3d 40 a2 93 b9
       0.31179443 0.29746142 0.12060812 -0.0002815891
0003a0 f3 22 cd 3e 68 1a 44 bc 54 2c 3f 3d 4a f1 fd bd
       0.40065727 -0.011969186 0.046673134 -0.12399538
0003b0 27 09 bb bd 61 2a d3 bd ba f1 c1 3e 89 c5 ba 3d
       -0.09132605 -0.103108175 0.37879735 0.09119708
0003c0 e5 e5 3e be 53 2e 69 3d b4 cf a2 3e ab 52 3b 3e
       -0.18642385 0.056928944 0.3179909 0.18293254
0003d0 c5 d3 c5 3d ba 7e cc bd 12 f2 1f 3e d6 9f 1a be
       0.096595325 -0.09985109 0.15619686 -0.15100035
0003e0 d4 53 c1 bd 02 67 8b 3e 42 bd e1 bd 7e bf a9 3e
       -0.09439817 0.27227026 -0.11022426 0.3315391
0003f0 7e e7 96 be b2 b6 dd be 8c da 17 bd 80 94 f7 3d
       -0.2947349 -0.43303448 -0.037073657 0.12088871

encoder_layers.0.mha.wk.bias f4 [64]
000000 71 50 e9 3e 05 78 d7 3c 62 7e 16 bf 5e 3a db 3e
       0.45569184 0.026302347 -0.58786595 0.42817968
000010 47 39 42 bf 27 08 b6 be 17 6f 23 3f 31 5b 84 3e
       -0.7586865 -0.35553095 0.63841385 0.25850824
000020 2f 48 6a bd 21 5b f5 bd 65 8d 63 3e 0a a0 c0 be
       -0.057197746 -0.11980272 0.22221906 -0.376221
000030 2c 1b df be e7 88 19 bf f6 52 d2 3d 74 e5 ef 3e
       -0.43575418 -0.5997452 0.1026973 0.46854746
000040 c4 2a ff be b7 a2 6e 3e ad 0c 71 3f 5f 2c ec be
       -0.49837315 0.23304258 0.94159967 -0.46127602
000050 db de fd 3e 5e 80 95 be 21 c8 a9 be 60 01 b9 3e
       0.49584088 -0.291995 -0.331605 0.36133862
000060 a6 0e aa 3f 9c 87 9e bf 01 4a 6c bd 64 cf 2c bf
       1.328572 -1.2385135 -0.057687763 -0.6750395
000070 84 38 4a 3f 03 f3 7d bf 5c 4a 91 3e ef 75 59 3e
       0.78992486 -0.9919893 0.28377044 0.21236394
000080 ab b3 16 3f fb 01 88 3f 44 70 19 3e 12 6f 01 3f
       0.588679 1.0625604 0.14984232 0.50560105
000090 2d 42 79 be fb c0 d5 be c6 e0 9c bc a7 fb 46 3b
       -0.2434165 -0.41748795 -0.01915015 0.0030362399
0000a0 c1 fb 71 3d bf 24 ae 3c 29 87 e8 be 9d ee 00 3e
       0.05907798 0.021257756 -0.4541562 0.12591024
0000b0 6c f2 b3 3e 82 b1 bb bd 77 b2 49 3e 91 56 05 3e
       0.3514589 -0.09164716 0.19696985 0.13021304
0000c0 68 4f 2e bd 37 cd 82 3e bb bb 50 3e a2 d6 b4 be
       -0.042556196 0.25547192 0.20384113 -0.35320002
0000d0 1a 4c 65 bd 58 58 72 be 32 b3 33 be f8 dd e9 3d
       -0.05598078 -0.23666513 -0.17548826 0.1141929
0000e0 6f ba 22 bf b4 b9 e8 be 49 f1 96 3d 44 04 13 be
       -0.63565725 -0.4545418 0.0737024 -0.14357096
0000f0 84 ea 1f be 80 19 25 3e 7a c2 68 be bf a4 06 3f
       -0.15616804 0.16123009 -0.22730437 0.5259513
